2018-11-21 10:19:29 INFO     [Launching the SAN]
2018-11-21 10:19:29 INFO     [Loading data]
Loaded 130319 samples out of 130319
Loaded 11873 samples out of 11873
2018-11-21 10:20:09 INFO     [
############# Model Arch of SAN #############
DNetwork(
  (dropout): DropoutWrapper()
  (lexicon_encoder): LexiconEncoder(
    (dropout): DropoutWrapper()
    (dropout_emb): DropoutWrapper()
    (dropout_cove): DropoutWrapper()
    (elmo): Elmo(
      (_elmo_lstm): _ElmoBiLm(
        (_token_embedder): _ElmoCharacterEncoder(
          (char_conv_0): Conv1d(16, 32, kernel_size=(1,), stride=(1,))
          (char_conv_1): Conv1d(16, 32, kernel_size=(2,), stride=(1,))
          (char_conv_2): Conv1d(16, 64, kernel_size=(3,), stride=(1,))
          (char_conv_3): Conv1d(16, 128, kernel_size=(4,), stride=(1,))
          (char_conv_4): Conv1d(16, 256, kernel_size=(5,), stride=(1,))
          (char_conv_5): Conv1d(16, 512, kernel_size=(6,), stride=(1,))
          (char_conv_6): Conv1d(16, 1024, kernel_size=(7,), stride=(1,))
          (_highways): Highway(
            (_layers): ModuleList(
              (0): Linear(in_features=2048, out_features=4096, bias=True)
              (1): Linear(in_features=2048, out_features=4096, bias=True)
            )
          )
          (_projection): Linear(in_features=2048, out_features=512, bias=True)
        )
        (_elmo_lstm): ElmoLstm(
          (forward_layer_0): LstmCellWithProjection(
            (input_linearity): Linear(in_features=512, out_features=16384, bias=False)
            (state_linearity): Linear(in_features=512, out_features=16384, bias=True)
            (state_projection): Linear(in_features=4096, out_features=512, bias=False)
          )
          (backward_layer_0): LstmCellWithProjection(
            (input_linearity): Linear(in_features=512, out_features=16384, bias=False)
            (state_linearity): Linear(in_features=512, out_features=16384, bias=True)
            (state_projection): Linear(in_features=4096, out_features=512, bias=False)
          )
          (forward_layer_1): LstmCellWithProjection(
            (input_linearity): Linear(in_features=512, out_features=16384, bias=False)
            (state_linearity): Linear(in_features=512, out_features=16384, bias=True)
            (state_projection): Linear(in_features=4096, out_features=512, bias=False)
          )
          (backward_layer_1): LstmCellWithProjection(
            (input_linearity): Linear(in_features=512, out_features=16384, bias=False)
            (state_linearity): Linear(in_features=512, out_features=16384, bias=True)
            (state_projection): Linear(in_features=4096, out_features=512, bias=False)
          )
        )
      )
      (_dropout): Dropout(p=0.5)
      (scalar_mix_0): ScalarMix(
        (scalar_parameters): ParameterList(
            (0): Parameter containing: [torch.FloatTensor of size 1]
            (1): Parameter containing: [torch.FloatTensor of size 1]
            (2): Parameter containing: [torch.FloatTensor of size 1]
        )
…
      (scalar_mix_1): ScalarMix(
        (scalar_parameters): ParameterList(
            (0): Parameter containing: [torch.FloatTensor of size 1]
            (1): Parameter containing: [torch.FloatTensor of size 1]
            (2): Parameter containing: [torch.FloatTensor of size 1]
        )
      )
      (scalar_mix_2): ScalarMix(
        (scalar_parameters): ParameterList(
            (0): Parameter containing: [torch.FloatTensor of size 1]
            (1): Parameter containing: [torch.FloatTensor of size 1]
            (2): Parameter containing: [torch.FloatTensor of size 1]
        )
      )
    )
    (embedding): Embedding(90953, 300, padding_idx=0)
    (ContextualEmbed): ContextualEmbed(
      (embedding): Embedding(90953, 300, padding_idx=0)
      (rnn1): LSTM(300, 300, bidirectional=True)
      (rnn2): LSTM(600, 300, bidirectional=True)
    )
    (prealign): AttentionWrapper(
      (score_func): SimilarityWrapper(
        (score_func): DotProductProject(
          (dropout): DropoutWrapper()
          (proj_1): Linear(in_features=300, out_features=128, bias=False)
          (proj_2): Linear(in_features=300, out_features=128, bias=False)
        )
      )
    )
    (pos_embedding): Embedding(54, 12, padding_idx=0)
    (ner_embedding): Embedding(41, 8, padding_idx=0)
    (doc_pwnn): PositionwiseNN(
      (w_0): Conv1d(1224, 256, kernel_size=(1,), stride=(1,))
      (w_1): Conv1d(256, 256, kernel_size=(1,), stride=(1,))
      (dropout): DropoutWrapper()
    )
    (que_pwnn): PositionwiseNN(
      (w_0): Conv1d(900, 256, kernel_size=(1,), stride=(1,))
      (w_1): Conv1d(256, 256, kernel_size=(1,), stride=(1,))
      (dropout): DropoutWrapper()
    )
  )
  (doc_encoder_low): OneLayerBRNN(
    (dropout): DropoutWrapper()
    (rnn): LSTM(1880, 128, bidirectional=True)
  )
  (doc_encoder_high): OneLayerBRNN(
    (dropout): DropoutWrapper()
    (rnn): LSTM(1880, 128, bidirectional=True)
  )
  (query_encoder_low): OneLayerBRNN(
    (dropout): DropoutWrapper()
    (rnn): LSTM(1880, 128, bidirectional=True)
  )
  (query_encoder_high): OneLayerBRNN(
    (dropout): DropoutWrapper()
    (rnn): LSTM(1880, 128, bidirectional=True)
  )
  (query_understand): OneLayerBRNN(
    (dropout): DropoutWrapper()
    (rnn): LSTM(512, 128, bidirectional=True)
  )
  (deep_attn): DeepAttentionWrapper(
    (dropout): DropoutWrapper()
    (attn_list): ModuleList(
      (0): AttentionWrapper(
        (score_func): SimilarityWrapper(
          (score_func): DotProductProject(
            (dropout): DropoutWrapper()
            (proj_1): Linear(in_features=2436, out_features=128, bias=False)
            (proj_2): Linear(in_features=2436, out_features=128, bias=False)
          )
        )
      )
      (1): AttentionWrapper(
        (score_func): SimilarityWrapper(
          (score_func): DotProductProject(
            (dropout): DropoutWrapper()
            (proj_1): Linear(in_features=2436, out_features=128, bias=False)
            (proj_2): Linear(in_features=2436, out_features=128, bias=False)
          )
        )
      )
      (2): AttentionWrapper(
        (score_func): SimilarityWrapper(
          (score_func): DotProductProject(
            (dropout): DropoutWrapper()
            (proj_1): Linear(in_features=2436, out_features=128, bias=False)
            (proj_2): Linear(in_features=2436, out_features=128, bias=False)
          )
        )
      )
    )
  )
  (doc_understand): OneLayerBRNN(
    (dropout): DropoutWrapper()
    (rnn): LSTM(1280, 128, bidirectional=True)
  )
  (doc_self_attn): AttentionWrapper(
    (score_func): SimilarityWrapper(
      (score_func): DotProductProject(
        (dropout): DropoutWrapper()
        (proj_1): Linear(in_features=2436, out_features=128, bias=False)
        (proj_2): Linear(in_features=2436, out_features=128, bias=False)
      )
    )
  )
  (doc_mem_gen): OneLayerBRNN(
    (dropout): DropoutWrapper()
    (rnn): LSTM(512, 128, bidirectional=True)
  )
  (query_sum_attn): SelfAttnWrapper(
    (att): LinearSelfAttn(
      (linear): Linear(in_features=256, out_features=1, bias=True)
      (dropout): DropoutWrapper()
    )
  )
  (decoder): SAN(
    (attn_b): FlatSimilarityWrapper(
      (att_dropout): DropoutWrapper()
      (score_func): BilinearFlatSim(
        (linear): Linear(in_features=256, out_features=256, bias=True)
        (dropout): DropoutWrapper()
      )
    )
    (attn_e): FlatSimilarityWrapper(
      (att_dropout): DropoutWrapper()
      (score_func): BilinearFlatSim(
        (linear): Linear(in_features=256, out_features=256, bias=True)
        (dropout): DropoutWrapper()
      )
    )
    (rnn): GRUCell(256, 256)
    (dropout): DropoutWrapper()
  )
  (doc_sum_attn): SelfAttnWrapper(
    (att): LinearSelfAttn(
      (linear): Linear(in_features=256, out_features=1, bias=True)
      (dropout): DropoutWrapper()
    )
  )
  (classifier): Classifier(
    (dropout): DropoutWrapper()
    (proj): Linear(in_features=512, out_features=1, bias=True)
  )
)
]
2018-11-21 10:20:10 INFO     [Total number of params: 13782337]
2018-11-21 10:20:24 WARNING  [At epoch 0]
2018-11-21 10:20:25 INFO     [#updates[     1] train loss[10.56160] remaining[0:53:09]]
2018-11-21 10:21:40 INFO     [#updates[   100] train loss[8.13040] remaining[0:50:12]]
2018-11-21 10:22:56 INFO     [#updates[   200] train loss[7.87183] remaining[0:49:02]]
…
